analysis/gru_model.pth (torch, 54300 bytes, 5 tensors)

gru.weight_ih_l0 f4 [192, 1]
000000 07 64 b5 3e 57 86 e2 be 2b c6 03 3f 80 05 19 bd
       0.35427877 -0.44243118 0.51474255 -0.03735876
000010 ab 28 a3 3c 4d 03 83 be 0f a3 9d 3f 7a 8c 85 bf
       0.019916853 -0.25588456 1.2315387 -1.0433495
000020 11 82 4a be e8 42 00 be 77 4d 4b bf 5c 39 93 be
       -0.19776179 -0.12525523 -0.79415077 -0.287547
000030 3e c1 9a 3e 64 ba f6 3e ce 6c da 3e fa 82 09 3d
       0.30225557 0.4818908 0.42661136 0.033572175
000040 e9 05 e6 3e 8b e6 91 bf 1e a0 87 be 9a 09 8e 3f
       0.44926384 -1.1398481 -0.26489347 1.109668
000050 ac cf 62 be 10 e8 3f 3e 8b c4 32 3e 83 4f 4d be
       -0.22149533 0.18740869 0.17457788 -0.20049863
000060 98 ad 8f bf e7 c7 89 bf 66 1a 6f bf 91 b9 c4 be
       -1.1224852 -1.076413 -0.93399656 -0.38422826
000070 d4 4a ef 3e dc 2f 05 bf 8d 93 c5 be 1c 4c 5f bf
       0.46736777 -0.5202615 -0.38589135 -0.8722551
000080 d6 73 5d bf c2 13 c0 bd e2 a6 ff 3e 3b 56 b2 be
       -0.86504877 -0.093787685 0.4993201 -0.34831414
000090 47 60 c2 be e1 f8 fe 3d d0 ef 83 3f ca 20 2a be
       -0.3796408 0.12449814 1.030756 -0.1661407
0000a0 c5 95 6a 3e ba d9 29 bf 1d 20 59 bf c4 6e 9f bf
       0.22908695 -0.6634785 -0.84814626 -1.2455678
0000b0 87 d5 53 3f 0d 15 bc 3e 5c 67 09 bf 09 e5 49 bf
       0.8274769 0.3673481 -0.5367334 -0.78865105
0000c0 5c 39 7d 3e d4 01 37 3e ad f2 0c bf 70 67 50 bf
       0.24728912 0.17871791 -0.55057794 -0.81407833
0000d0 95 a3 86 3e c6 ff 18 be 20 69 90 bf bb 59 f3 bd
       0.26296678 -0.1494132 -1.1282082 -0.11882349
0000e0 6d 2e 9c bd c8 e1 80 bf 6a b0 9f 3f 5c af f4 3e
       -0.076260425 -1.0068903 1.2475712 0.4779004
0000f0 67 da 5c bd ba b1 2c be bc 75 1b 3f 1e 94 78 bf
       -0.053919222 -0.16864672 0.60726523 -0.9710101
000100 77 fc 27 3f 8b 6a ec 3f 98 34 0e 3f f1 60 91 3e
       0.65619606 1.8470014 0.55549 0.28394273
000110 4f 97 6c bd 4c 75 a8 be 63 5e 2b 3f fc d1 43 3f
       -0.057761487 -0.3290199 0.669409 0.76492286
000120 eb 43 b7 3e 49 28 96 3e 25 df b3 bf 6f fe c0 be
       0.35794005 0.2932761 -1.4052473 -0.37694117
000130 06 8f 0e 3f f2 83 06 3e a1 e7 48 3f 51 6e d9 3e
       0.55686986 0.1313627 0.7847844 0.42466977
000140 22 73 0e bf 62 67 7f bf f4 33 01 be 8c 17 22 40
       -0.5564443 -0.99767125 -0.12617475 2.5326872
000150 9e 56 ed 3e a2 b0 d1 3e 2c 07 79 3e 29 ce 73 3e
       0.46355146 0.40955073 0.24319142 0.23809113
000160 c2 44 b2 3e 08 dc 65 3f a4 ab db 3f ce a9 b2 3d
       0.34818083 0.89788866 1.7161756 0.08723794
000170 48 3d 6a 3f 81 a4 74 bf 86 16 f0 be 2d 73 a5 bf
       0.9149976 -0.95563513 -0.46892184 -1.2925774
000180 97 62 8c 3f ef 14 b4 3e 7f 95 c6 3f f0 9c af 3e
       1.0967587 0.3517222 1.5514373 0.3429942
000190 e2 e1 1c 3e 6a 2d bc 3c 6d 84 40 be 3c 05 8c 3f
       0.15320542 0.022970874 -0.18800516 1.0939097
0001a0 6a e0 8e 3f c2 59 73 bf 1e cf 4a 3f d1 7b 16 3f
       1.1162236 -0.95058835 0.79222286 0.5878268
0001b0 a8 7b 1c 3e 52 bc dc 3f 91 dc bf 3c 81 3d a1 3f
       0.15281546 1.7244971 0.023420604 1.2596895
0001c0 b5 96 36 3f d6 d8 42 3e b5 07 66 3c d5 37 3e bf
       0.7132371 0.19028029 0.014039923 -0.7430394
0001d0 db 1b 21 3f f2 b1 d0 3e 70 71 a7 bf 77 41 8f 3d
       0.6293313 0.40760761 -1.3081493 0.06994908
0001e0 fb 86 1c 3f 72 46 30 bf a8 f7 36 be 10 ba 1b 3e
       0.61143464 -0.6885749 -0.17867911 0.15207696
0001f0 f8 2a 37 bd cb 8d 8b 3e 0c 19 03 40 22 0e 92 3e
       -0.044718713 0.27256617 2.0484037 0.28526407
000200 9a 84 43 be 7a f2 ba bc 89 c0 28 3d d0 44 33 3d
       -0.19093552 -0.0228207 0.04119924 0.043766797
000210 6e 88 22 bf 69 89 84 3e c2 9e 7f be 03 4b 89 bd
       -0.63489425 0.25886086 -0.24962905 -0.067037605
000220 9e 9a 95 3b 1c 69 cb be 47 70 96 3e d9 6a 8f 3e
       0.004565551 -0.3972863 0.29382536 0.28011206
000230 cc fa bc 3d a7 15 2c be cf 79 47 3e 45 d9 8e 3c
       0.09227523 -0.16805135 0.1948006 0.017437587
000240 c1 f2 0f 3e fe 86 1d bf 7a aa 10 3e 98 98 c1 bd
       0.14057447 -0.61534107 0.14127532 -0.09452933
000250 e6 08 d6 3e 03 27 b1 3c a6 ea 60 3e a2 c6 23 3c
       0.41803664 0.021625048 0.21964511 0.009996088
000260 e0 5f 85 3e b6 b0 bc 3e ff f1 a1 bd f1 63 cf 3d
       0.2604971 0.3685357 -0.07907485 0.10126484
000270 79 e4 a8 bd 7b 7f 3c be c3 42 14 bf ef 43 a7 be
       -0.08246703 -0.18408005 -0.5791437 -0.32669017
000280 16 d4 1a be 06 ee 35 bc af 43 6b 3d 44 fe 30 3e
       -0.15119967 -0.0111041125 0.057437595 0.17284495
000290 74 ad 2a be 51 51 b7 be a5 02 85 3e d8 b2 c8 be
       -0.1666773 -0.35804227 0.2597858 -0.39198947
0002a0 55 97 8f be ea 20 c5 3e 64 c3 8f 3e b1 bd 8d bc
       -0.28045145 0.38501674 0.2807876 -0.017302366
0002b0 0f 69 a4 3e de 4e da bd 95 56 62 bd 94 85 4d be
       0.32111403 -0.10659574 -0.055258352 -0.20070487
0002c0 53 1f 50 bc a4 c3 ed bb 79 9b 6c bb e7 cf cd be
       -0.012702781 -0.007255988 -0.003610341 -0.4019768
0002d0 53 a5 d2 3d 25 87 59 3c f2 dd 09 bf 6a 8e 02 bc
       0.10285439 0.01327685 -0.53854287 -0.0079685245
0002e0 31 b6 fe be ec c1 e1 3e 01 fb 50 3e 54 e2 a9 bb
       -0.49748376 0.44093263 0.2040825 -0.005184451
0002f0 d1 5c 8f 3f ed ee 5f bd ab 3a a6 be c9 00 00 3e
       1.12002 -0.054671217 -0.32466635 0.125003

gru.weight_hh_l0 f4 [192, 64]
000000 d7 f4 ee 3e c5 f5 8d 3d da 00 fc 3d 0b b0 1b 3f
       0.46671173 0.069316424 0.1230485 0.60815495
000010 df 02 a3 be 03 17 26 3e 01 bc bb be d0 47 fc 3d
       -0.31838128 0.16219716 -0.36666873 0.12318385
000020 5f aa 44 3d 83 28 af bd 31 a9 fa bb 05 c9 09 3f
       0.04801404 -0.08552649 -0.0076495637 0.53822356
000030 e7 8a dd 3e ad 91 24 bf 1f 35 e1 3e c7 54 2e bf
       0.43270037 -0.64284784 0.4398584 -0.6809811
000040 9f d3 10 3f 83 85 30 3e d1 bc 37 be 2c 94 33 3e
       0.5657291 0.1723843 -0.17943121 0.17536992
000050 a5 2c ce bd 46 e4 fb 3d e8 fa 0e be 0f 22 ae be
       -0.10067109 0.12299399 -0.139629 -0.3401036
000060 0a bc a2 be 17 0d 30 be fa d2 c7 3d 0d 79 31 be
       -0.31784087 -0.17192493 0.097570375 -0.17331333
000070 b0 0c ea be 19 6c 3d 3e cd f6 df 3b 81 8d a4 be
       -0.45712805 0.18498267 0.006834841 -0.3213921
000080 f4 60 e3 3d 81 bc fc bd 76 75 72 3f 28 6a 7a be
       0.11102477 -0.12340642 0.9471048 -0.24454558
000090 92 94 c2 3e a9 15 e0 be b7 75 dc 3e 71 4b 17 3f
       0.38003975 -0.43766525 0.4305856 0.5909949
0000a0 a4 10 fd be 19 71 ef 3d 9e 69 03 bf 9a 10 b0 bd
       -0.49426758 0.116914935 -0.51333034 -0.085969165
0000b0 35 00 08 3f 3f 90 89 bd 03 d2 1f bd 23 14 40 3f
       0.53125316 -0.06716966 -0.039018642 0.75030726
0000c0 34 cb 34 be 7d e9 3a be 83 38 8d bc 49 fe 41 3e
       -0.17655641 -0.18253131 -0.017238861 0.18944658
0000d0 ef e1 62 3d 7a 95 e0 be 29 fb 85 bd e5 df 05 bf
       0.05539125 -0.43864042 -0.065420456 -0.5229476
0000e0 ec da 32 3f a6 6a ba be cb 4f e0 3e 22 0d 04 bf
       0.698653 -0.3640949 0.43810877 -0.5158254
0000f0 47 5f 00 3f 8a 09 58 be 5c 8d 1c 3d 09 16 8c 3b
       0.5014538 -0.21097389 0.03822075 0.0042750877
000100 ec a4 50 be b6 07 a6 3e d3 c5 06 3e b5 4c 00 3e
       -0.20375413 0.32427758 0.13161401 0.12529261
000110 f0 72 e0 bd db 89 9a 3e de 70 8c 3e 9f 6b 99 bd
       -0.109594226 0.301833 0.2742986 -0.0749123
000120 42 ad 65 be 67 f8 44 3e a1 90 21 3e 91 c4 53 bf
       -0.22429374 0.19235383 0.15777828 -0.8272181
000130 48 81 d0 3d e1 4a f5 3e db 92 96 be fe 3d b4 3e
       0.101809084 0.4790869 -0.29408917 0.35203546
000140 65 40 b3 be fd 5c 4f bf 21 3e 14 3e e7 4c 9d bd
       -0.35010067 -0.81001264 0.14476825 -0.076806836
000150 a2 b1 7c 3e c9 93 c6 bd b0 69 d7 3d a2 c0 e9 3d
       0.24677137 -0.096961565 0.10518205 0.11413695
000160 51 1e 84 3e 50 86 01 3f c7 fe 13 3f 1c 0f e2 3d
       0.2580438 0.5059557 0.57810634 0.11038038
000170 a8 e3 c9 be 37 d0 09 bf 6d 85 80 bd 55 c5 ce bd
       -0.394315 -0.53833336 -0.06275449 -0.10096232
000180 e2 68 87 bf b9 c7 cb 3d ce b0 1c 3e 0b f1 0d 3e
       -1.0578883 0.099502034 0.1530182 0.13861482
000190 c7 96 76 be be 16 07 3f 08 c4 eb be d6 cb b7 3e
       -0.24080954 0.52769077 -0.46047997 0.35897702
0001a0 ae 68 9c bd aa 8b 75 3e 15 e9 02 3f 12 bc 1b 3c
       -0.076371536 0.23979059 0.51136905 0.009505289
0001b0 35 0e 07 be b4 55 18 3f e6 b3 ba 3e c4 35 1e 3f
       -0.13189013 0.5950577 0.36465377 0.6180079
0001c0 ea 84 bc 3e 22 8f 82 3d e0 16 49 bd 06 83 16 bf
       0.36820155 0.06374957 -0.04909408 -0.58793676
0001d0 21 66 99 3e 83 35 5a 3e 46 b2 71 be 04 7c 57 bd
       0.2996073 0.21309476 -0.23603162 -0.052608505
0001e0 4f 1c fa be 1b 7d d7 3e ea 3d 58 bd 76 38 93 be
       -0.48849723 0.42087635 -0.05279342 -0.28754014
0001f0 16 9c 3a be 2c 65 0e be f2 3e 10 bd d9 b4 b3 3e
       -0.18223605 -0.13905782 -0.03521628 0.35098913
000200 ed b9 7d bf 2c 03 bc be 27 ee 7e 3f e8 d5 3d bd
       -0.99111825 -0.3672117 0.9958214 -0.046346575
000210 84 c4 86 bf 32 4c e7 be 3b 76 b4 bf 76 16 50 3f
       -1.0528722 -0.4517532 -1.4098581 0.8128427
000220 95 5b 6d be ef da 16 bf 76 da cf be 03 63 45 3f
       -0.23179467 -0.58927816 -0.4059636 0.77104205
000230 f4 e9 0a bf 7c 73 b4 bf 01 06 16 3f d3 80 cd 3e
       -0.54263234 -1.4097743 0.5860291 0.40137348
000240 69 63 88 3f cd 63 0d bf 9f 2a ca bd 7b a2 cd bd
       1.0655338 -0.5523041 -0.098714106 -0.10040756
000250 e9 58 8c 3f 1d a4 02 bf dd c1 23 3f d6 91 cf 3e
       1.0964633 -0.51031667 0.63967687 0.40540951
000260 33 fc 31 3f e0 aa fb 3e cb 39 bf be 27 2b e8 be
       0.6952545 0.49153805 -0.3734878 -0.45345423
000270 b9 d7 54 bf e7 40 42 3d 83 f5 a5 bf f6 f3 2c bf
       -0.83141667 0.047425177 -1.2965549 -0.67559755
000280 b3 ed 44 be b7 03 bc be 84 f9 36 3f b8 69 e1 3d
       -0.192313 -0.36721584 0.7147448 0.110064924
000290 4d 42 00 3e a7 58 90 bf 2b 86 48 3f 51 17 f7 be
       0.12525292 -1.1277055 0.78329724 -0.48259977
0002a0 e5 31 5e bf a0 ff c4 bd 2c ba 22 bf 9c fe 1b bf
       -0.86794883 -0.09619069 -0.63565326 -0.6093538
0002b0 d8 3b b1 3f b3 9c 99 be 74 61 39 3f b4 6c 35 bf
       1.3846388 -0.30002365 0.72414327 -0.7086899
0002c0 f8 1e 54 3f 68 c3 7c be 37 ca 1c bf 32 7e 9b bf
       0.82859755 -0.24683917 -0.61246055 -1.2147887
0002d0 26 b8 01 be f1 c3 3b bf 4e 69 e8 3e dd e2 ea 3d
       -0.12667903 -0.7334586 0.4539284 0.11469052
0002e0 bf b8 9e bf 2e b8 15 3c 1f 1f cb 3f 5b 44 9e be
       -1.240013 0.00913815 1.5868872 -0.30911526
0002f0 16 90 03 3f 7b 02 be bd 36 f9 a2 bf 36 90 7b 3f
       0.5139173 -0.09277817 -1.2732303 0.98266923
000300 e3 df 1e be 6a d3 41 3d 1b a3 99 3e d7 45 e4 3f
       -0.15515094 0.04732076 0.30007252 1.7833813
000310 0b 38 84 3e 61 c7 fc be 29 fe 99 3d d1 f4 48 3c
       0.25824007 -0.49370864 0.0751918 0.0122654
000320 b3 1d ae be 63 26 c7 3e fa 96 36 bf 4a 45 3b be
       -0.34007034 0.38896474 -0.7132412 -0.1828815
000330 9e 55 21 bd 40 61 14 bd ee 50 44 be 88 9b 79 3e
       -0.03938829 -0.036225557 -0.19171497 0.24375737
000340 19 f8 48 3e 31 17 99 3e bc ea 51 bf 1f 55 d8 3c
       0.19625892 0.29900506 -0.819988 0.026407776
000350 ba ce 04 3c 18 91 a9 bd 94 57 bb be ec cd c3 3d
       0.008105928 -0.082796276 -0.36590254 0.09560761
000360 8f ad c1 bc 78 4a bf 3d 14 0d 90 3e 8f 72 41 bf
       -0.02364233 0.09340376 0.28134978 -0.7556543
000370 50 5e 0e bf 2a 68 c7 3e b6 f1 eb 3e 96 0a 2b 3f
       -0.5561266 0.38946658 0.46082848 0.6681303
000380 7c 45 9a 3e ca 2c 11 bd ef 14 83 bd 94 12 00 be
       0.30131137 -0.035443105 -0.06400477 -0.12507087
000390 5a aa 3c 3e bb ba 50 be 3c dc 96 3c 41 17 e4 3c
       0.18424359 -0.20383732 0.018415563 0.02784312
0003a0 38 58 3a 3e b4 0e 16 bf ff 6a 73 bc 7e 03 cb be
       0.18197715 -0.58616185 -0.014857053 -0.39651102
0003b0 1b f8 07 3d 5c 5f 4e 3e ae a1 20 3f 71 8c af be
       0.033195596 0.20153564 0.62746704 -0.34286836
0003c0 25 3c 06 bf 8c 83 5a 3e df a4 59 3d 5a 14 01 3f
       -0.52435523 0.21339244 0.05313575 0.5042168
0003d0 72 f4 1b 3d fc f1 20 bf b6 7b 14 3f 94 75 d5 be
       0.038074918 -0.6286924 0.5800127 -0.41691267
0003e0 a5 c1 98 bf 76 56 92 bd b1 44 b5 bc 55 1b b3 3e
       -1.1934096 -0.07145397 -0.022127481 0.3498179
0003f0 65 ff 0d 3e 8e aa 68 3d 03 32 e2 be 8d 6b 70 3e
       0.13866957 0.05680328 -0.4417878 0.23478527

gru.bias_ih_l0 f4 [192]
000000 4f ab 1f bf 9a 55 8f bf a2 58 e4 bf 27 e5 fd bf
       -0.6237077 -1.1197999 -1.7839549 -1.9835557
000010 17 ff c5 bd 6e 5f c0 be a7 ce 3d bf fc 91 52 bf
       -0.09667795 -0.37572807 -0.7414345 -0.82254004
000020 c2 8a 84 bf 1a 65 b1 be ba c1 f9 be 9e f1 6b c0
       -1.0354846 -0.34647447 -0.48780614 -3.6866221
000030 cd 8f a3 bf 5b a3 a2 bf 2d e3 1b bf 64 a6 ee bf
       -1.277826 -1.2706102 -0.6089352 -1.8644528
000040 c3 fb f6 bf 92 b5 a9 3d 21 7a 16 bf 0e d7 9c bf
       -1.9295582 0.08286585 -0.58780104 -1.225313
000050 50 a6 ba be a9 f6 f1 bf f1 d7 52 bf 5d 58 f1 bf
       -0.3645501 -1.89034 -0.8236075 -1.8855091
000060 d5 45 63 bf 8f b6 5f bf 3d a5 fe be 44 4b af bf
       -0.8877843 -0.8738794 -0.49735442 -1.3694844
000070 b5 5c ba bf 5c 8e 10 bf 2d 10 89 3b 00 a0 60 be
       -1.4559542 -0.56467223 0.0041828365 -0.21936035
000080 ac c2 78 be 0d 56 b3 bf 22 17 fe bf 68 42 ad bf
       -0.24293011 -1.4010636 -1.985081 -1.353589
000090 f3 13 b2 bf 81 4b 9e be 48 80 00 c0 65 f7 bd be
       -1.3912338 -0.3091698 -2.0078297 -0.3710281
0000a0 46 75 ab be 65 0f 91 bd 62 64 e8 be c0 97 80 bf
       -0.3348791 -0.070830144 -0.45389086 -1.004631
0000b0 c6 ce e7 be 01 9a 97 bf 63 41 82 bf 1d ae 2a bf
       -0.45274943 -1.1843873 -1.0176204 -0.66671926
0000c0 d2 a7 7e bf 38 78 1b c0 8b 39 dd bf b6 94 f0 3d
       -0.99474823 -2.4292126 -1.7283186 0.11747114
0000d0 1d a9 0d c0 ec 61 d1 bf b8 7e 3a be 04 a6 67 bf
       -2.2134469 -1.6358008 -0.18212402 -0.90487695
0000e0 de ad 34 be 34 70 85 be 46 45 d9 be d5 34 32 c0
       -0.1764445 -0.26062167 -0.42435664 -2.7844746
0000f0 64 2f ab c0 24 f3 e2 bf a4 7c cb be 36 0a 78 bf
       -5.349535 -1.7730451 -0.3974353 -0.9689058
000100 67 b2 5f 40 07 a0 0a 40 ef d3 2b 40 5c 2a 8d 40
       3.4952638 2.1660173 2.6848104 4.411421
000110 d8 e7 d9 bd 00 08 10 40 04 8d 0a bf eb f0 ee 3f
       -0.10639924 2.2504883 -0.5412142 1.8667272
000120 c3 df 93 40 88 36 89 bf bf 79 de 3f c1 9d 6b c0
       4.6210647 -1.0719767 1.7380904 -3.6815035
000130 8c 0b 7a 40 8e 44 96 bf e3 be 66 3f ce c6 65 40
       3.9069548 -1.1739671 0.9013502 3.590259
000140 ea 15 01 c0 5f 19 87 3f a6 b5 56 40 98 4c c2 3f
       -2.0169625 1.0554618 3.354837 1.5179625
000150 6f 26 1f 3f 06 a1 a5 40 66 c5 c8 3f 06 37 83 40
       0.6216802 5.175906 1.5685241 4.1004667
000160 e8 15 23 40 67 e1 e2 3f cf 83 de 3f 97 9d 72 40
       2.548212 1.7725037 1.7383975 3.7908685
000170 67 8e 65 40 6d 66 e7 3f 09 af 07 be 70 6e 68 3f
       3.5868165 1.8078133 -0.13250364 0.90793514
000180 84 c0 07 3f 00 cd ac 40 3c f4 1a 40 40 37 91 40
       0.5302813 5.4000244 2.421157 4.5379944
000190 2d 65 a2 40 3b 68 0c be 9a a9 6b c0 4e b9 db 3f
       5.0748506 -0.13711636 -3.6822267 1.7165926
0001a0 7f 68 e1 3f 60 13 1a 40 c1 a1 af 3f 59 44 63 3f
       1.7610015 2.4074326 1.3721238 0.88776165
0001b0 2f c0 22 be 69 11 ad 3f 15 70 81 40 8b 6c 11 40
       -0.15893625 1.3520938 4.044932 2.27225
0001c0 ad 5f 57 40 5c 2b a0 40 7a 72 95 40 89 b2 84 3f
       3.3652146 5.005293 4.670224 1.0366985
0001d0 02 96 6d 40 19 3d 71 40 9e e5 8d 3f ed 47 98 40
       3.7122808 3.769354 1.1085699 4.75878
0001e0 80 71 c5 3f e8 e1 34 40 38 07 b6 bf 00 e8 92 40
       1.5425262 2.8262882 -1.4220953 4.5908203
0001f0 5e 82 93 c0 6b 5a 78 40 8a 75 11 40 41 d5 43 40
       -4.609664 3.8805187 2.272799 3.059891
000200 b7 a1 f5 bd 89 5c 3b be b3 97 dc 3c eb 1f df bc
       -0.11993735 -0.18297018 0.026927805 -0.0272369
000210 ae e1 c9 3d fd b2 0d bc f4 01 d3 bd 93 40 8e bc
       0.09857498 -0.008648631 -0.10303107 -0.017364776
000220 56 d5 d4 3d bf 75 b6 bd 18 46 61 3d 5d ac bb 3d
       0.10392253 -0.08909177 0.054998487 0.09163735
000230 ee ea d1 bd fd fc 8b bd e3 31 b7 3d 88 d8 53 3d
       -0.102498874 -0.06835363 0.08945062 0.051720172
000240 f9 32 c9 3b ac 33 29 bd b8 87 58 bc 82 a5 1c be
       0.0061401096 -0.041309044 -0.013215952 -0.15297511
000250 fd 09 6f 3d 88 d3 e5 bb b6 0c f5 bd 26 b3 d8 ba
       0.058359135 -0.007013742 -0.11965315 -0.0016532883
000260 75 a8 8a be b5 cd 0b bf 3a 9f 80 3e 17 8b 2c bd
       -0.27081648 -0.5461076 0.2512148 -0.042124834
000270 8e 12 8f bd 78 ef 43 bd be 0c 31 be 68 ae ac bd
       -0.06985961 -0.047835797 -0.17290017 -0.08431703
000280 89 0b 9e bd 47 e1 1b bc 37 73 23 3d 51 15 d5 bd
       -0.07717044 -0.0095141595 0.0399048 -0.104044564
000290 d2 ad 07 3e 7b 50 21 be 3a d8 64 3d fe 9a 6d be
       0.13249901 -0.15753357 0.055870272 -0.23203656
0002a0 ef d0 5e be f4 fd b7 bc 65 0d ce bd d0 d2 8e 3c
       -0.2175939 -0.022459961 -0.100611486 0.017434508
0002b0 29 b1 3c 3e 46 9f 99 bd 16 ce 9c ba 3b 3c 51 3e
       0.18426956 -0.07501082 -0.0011963274 0.20433132
0002c0 8e 62 09 3e 6c cc 9f 3c 22 d4 57 3d a5 64 a5 bd
       0.13416502 0.019506656 0.05269254 -0.08075837
0002d0 10 ec f5 bd 1d fd 6f bd 1f a0 23 bc b3 b8 b8 3d
       -0.12007916 -0.058590997 -0.009986906 0.090196036
0002e0 64 a8 72 be f0 d6 09 be 5c cf 71 3d 8e cb b7 3b
       -0.23697048 -0.13460898 0.059035644 0.0056089824
0002f0 5c 20 61 3d d0 1f ca 3d d8 15 62 be 2a c4 d1 bd
       0.0549625 0.09869349 -0.22078645 -0.102424935

gru.bias_hh_l0 f4 [192]
000000 ec 6b 14 bf 47 10 8e bf aa 84 d7 bf e9 c7 03 c0
       -0.57977176 -1.1098717 -1.6837361 -2.0590765
000010 42 3b 2f bc 98 e9 db be d9 03 5b bf f6 c6 70 bf
       -0.0106952805 -0.42951655 -0.85552746 -0.9405359
000020 d7 b7 77 bf 2d 99 5b be 4b 15 c7 be d2 13 60 c0
       -0.9676489 -0.2144515 -0.38883433 -3.5012097
000030 97 e3 aa bf fe 1c 9b bf 1d cf 25 bf e6 08 e3 bf
       -1.3350705 -1.2118223 -0.64769155 -1.773709
000040 12 12 f7 bf b4 cc 7c 3e d3 38 11 bf 13 7d a4 bf
       -1.930239 0.24687463 -0.5672733 -1.285067
000050 f6 63 f5 be 3f da f2 bf db da 74 bf 1b 8c 05 c0
       -0.47927827 -1.8972853 -0.95646447 -2.0866764
000060 4e 6e 8d bf 70 77 64 bf 26 ce 05 bf af 7e aa bf
       -1.1049287 -0.8924475 -0.5226768 -1.3319911
000070 b7 e3 ae bf 91 57 f3 be 7a aa 2f 3d a3 59 ff bd
       -1.3663243 -0.47527745 0.04288719 -0.12468269
000080 28 67 92 be f8 f9 bd bf 1e 6b 00 c0 ea 91 99 bf
       -0.28594327 -1.484191 -2.006538 -1.1997654
000090 f3 ec ba bf 70 d0 17 be b9 1d 06 c0 84 6b b2 be
       -1.4603561 -0.14825606 -2.0955641 -0.34847653
0000a0 da e6 d1 be 78 8e fb bd c7 b9 e7 be dd 65 75 bf
       -0.40996438 -0.12283033 -0.45258924 -0.95858556
0000b0 f0 7b e4 be 90 f8 94 bf 0d 10 9a bf a1 d3 33 bf
       -0.44625807 -1.1638355 -1.2036148 -0.70244795
0000c0 01 87 65 bf 68 c1 10 c0 fd 9b f6 bf 18 06 54 3d
       -0.89659125 -2.2618046 -1.9266354 0.051763624
0000d0 e8 f5 0d c0 30 0a cf bf d6 0b 02 be 72 cf 5f bf
       -2.218134 -1.6174984 -0.12699828 -0.8742591
0000e0 a5 7d ef bd a4 d6 93 be eb 70 d0 be cd 26 2e c0
       -0.11693887 -0.28874695 -0.4071115 -2.7211182
0000f0 13 d2 b0 c0 ff b3 db bf ee 0d e7 be 66 9b 4b bf
       -5.525644 -1.7164305 -0.45127815 -0.79533994
000100 8a f0 5f 40 3a ba 07 40 eb 30 2e 40 d8 05 86 40
       3.4990563 2.1207414 2.7217357 4.1882133
000110 16 10 08 be c8 6f 1d 40 a2 b1 fc be c9 07 f4 3f
       -0.13287386 2.4599476 -0.49354273 1.9064876
000120 ae 67 90 40 68 ed 7c bf 45 62 c8 3f ab 6a 75 c0
       4.512656 -0.98799753 1.565499 -3.8346355
000130 a4 fe 73 40 2d b2 71 bf d9 36 61 3f 14 80 5f 40
       3.812417 -0.944125 0.87974316 3.4921923
000140 d2 0f 01 c0 52 5a 88 3f 11 72 4d 40 b9 5d d5 3f
       -2.0165906 1.0652564 3.210087 1.6669227
000150 78 b5 39 3f 51 09 9e 40 f3 27 e1 3f 7c a5 7e 40
       0.72542524 4.9386373 1.7590317 3.9788504
000160 bd 80 21 40 23 05 f7 3f 90 7a da 3f ef c8 6d 40
       2.5234826 1.9298443 1.7068653 3.715389
000170 54 cd 68 40 ec ce e4 3f 4d a8 2d be 8c 0d 8c 3f
       3.6375322 1.7875648 -0.16958733 1.0941634
000180 55 48 06 3f 31 06 b0 40 88 5b 1d 40 2a b2 8a 40
       0.5245412 5.500756 2.4587116 4.3342485
000190 f1 2b a2 40 56 98 68 3c 3f 0d 6f c0 ce cc df 3f
       5.067864 0.014196476 -3.7351835 1.7484376
0001a0 2b 03 d6 3f b7 ac 20 40 15 4e a9 3f b0 41 5f 3f
       1.6719717 2.5105417 1.3226954 0.87209606
0001b0 7b 60 a5 bc 03 fb b0 3f 93 7e 85 40 31 e1 10 40
       -0.020187607 1.3826603 4.171701 2.2637446
0001c0 09 9c 4f 40 00 3d 9e 40 65 36 99 40 51 61 8d 3f
       3.2438986 4.9449463 4.78789 1.1045324
0001d0 cd 69 61 40 75 bd 69 40 09 17 8d 3f 37 2b 93 40
       3.5220826 3.6521885 1.1022655 4.5990252
0001e0 97 64 c4 3f ad 73 3a 40 80 5b cc bf df 5b 94 40
       1.5343198 2.9133103 -1.5965424 4.6362147
0001f0 08 21 94 c0 1e 15 7d 40 cf 11 09 40 65 1c 46 40
       -4.629032 3.954414 2.141712 3.095483
000200 1b dc 9a 3e fa 76 67 be ab e0 cc bd 33 ba 8b bd
       0.30246052 -0.2260398 -0.100037895 -0.06822624
000210 b4 d8 ac be c9 10 3e be f6 63 f9 bd 6b 9d b9 3d
       -0.3375908 -0.1856109 -0.12177269 0.09063228
000220 02 3c 80 3e c6 8c f7 3d df 27 b9 be 81 85 ae be
       0.25045782 0.12087397 -0.36163232 -0.3408623
000230 52 e3 89 bd c6 0a 10 3e 7a 78 b1 3e 76 1c 9e 3c
       -0.06732811 0.1406661 0.3466223 0.01930068
000240 fd 94 4c be 4f da 18 3e 83 db 8f bc da f4 06 3f
       -0.1997871 0.14927028 -0.017560726 0.52717364
000250 a9 84 48 3d 1d 90 21 be 6c 52 8b bc 68 bb af bd
       0.04895464 -0.15777631 -0.017007075 -0.08580667
000260 cc 30 d5 bd 53 8c 40 3f 1a 87 eb bd 2a df 56 3d
       -0.10409698 0.7521412 -0.11500378 0.05245892
000270 e3 77 90 3d c2 2d 56 bc 8f d8 10 3d 77 9d 78 3e
       0.070541166 -0.013072433 0.035362776 0.24278818
000280 7a 48 b8 3d d4 76 81 3d b2 23 54 be 30 fd cd 3d
       0.08998199 0.06321493 -0.20716742 0.10058057
000290 8c 36 83 3d ee 5f a3 be e7 22 0f 3d 54 06 0d bf
       0.06406888 -0.31909126 0.034945395 -0.5508778
0002a0 af 90 1a be 6e 37 51 be 93 89 87 bd 7a 2d 2e be
       -0.15094255 -0.20431301 -0.06618037 -0.17009535
0002b0 f5 dd b2 3c f4 33 15 bc f8 d7 a3 3d cf 3a ac be
       0.021834353 -0.009106625 0.08000177 -0.33638617
0002c0 51 01 58 bd b7 89 37 3d 8b 74 9f 3e 40 8f 53 3e
       -0.05273563 0.04480907 0.31143603 0.20660114
0002d0 13 b4 df bd 7d 00 93 bd a2 8c c0 3e a0 80 94 bc
       -0.10923018 -0.071778275 0.37607294 -0.01812774
0002e0 73 b8 d8 be ba b8 4b 3e 99 4d bc 3e 0d 2d 10 3e
       -0.42328224 0.19894686 0.36777952 0.14079686
0002f0 2c ef 86 3e d9 cc 1b 3d 4e 58 2d 3e 71 16 9b 3e
       0.2635435 0.038037155 0.16928217 0.3029056

fc.weight f4 [1, 64]
000000 03 df ff bc c6 f6 27 be 2a 58 d9 bd a7 70 0c 3c
       -0.03123427 -0.1640273 -0.10612519 0.00857178
000010 a7 23 e2 bd 21 89 67 bd ca 0e 6a be 89 18 83 3d
       -0.110419564 -0.05652726 -0.22857204 0.06401164
000020 90 4d e2 3d 0d 54 eb bd a8 0f 93 3c 6a 98 a2 3e
       0.1104995 -0.11490641 0.017951801 0.31756908
000030 78 ff fe bd 78 1a 60 be 59 4c 01 3e e9 fb ab 3d
       -0.124510705 -0.21885097 0.1262678 0.083976574
000040 20 c7 68 3e ed fb fa 3d 0a 24 72 bc 86 12 87 bc
       0.2273221 0.12255082 -0.0147791 -0.016488325
000050 cd 3a f1 ba 25 40 30 bd e5 8a ab bd af 63 11 bd
       -0.0018404365 -0.043029923 -0.083761014 -0.035495456
000060 f1 a9 89 be 4d 54 89 be 82 4a 48 3e 9e 5d 08 bd
       -0.26887468 -0.2682213 0.19559672 -0.033292405
000070 7f f9 13 bd 4b c8 fc bc 11 3a 0d be 9c 1d 94 bd
       -0.03612661 -0.030857226 -0.13791682 -0.0723221
000080 5f 14 45 3e 9d 8a 30 3d c4 86 4f 3d 55 4d c9 bd
       0.19246052 0.043100942 0.050665632 -0.09829203
000090 a5 85 fe 3d 91 ad f2 bd 69 15 98 3e 74 6b b3 bd
       0.124278344 -0.118495114 0.29703835 -0.087607294
0000a0 9f 48 f6 bd d2 72 a0 bd 75 c8 25 be 44 03 71 bd
       -0.1202557 -0.078344 -0.1618975 -0.058841005
0000b0 1e a2 28 3e 6d f2 8d bd 82 80 60 3d 4d 4f cf 3d
       0.16468093 -0.06931005 0.054810055 0.10122547
0000c0 0e 77 b0 3d 7e e4 91 ba cc 44 72 3d d5 c4 02 bd
       0.08616458 -0.0011130718 0.05914764 -0.031925995
0000d0 4a 5d 07 be e0 7a b8 bd ba 20 8c bd 2f b6 c6 3b
       -0.1321918 -0.090078115 -0.068421796 0.0060641984
0000e0 b1 cd bb 3c 95 06 51 be c3 7c 54 3e d4 40 f7 bc
       0.02292523 -0.20412667 0.20750718 -0.03018228
0000f0 a8 9f 2a 3f 91 52 05 3e 4c da 8e bd fa fd 25 be
       0.66649866 0.13019778 -0.069752306 -0.16210166
