analysis/lstm_model.pth (torch, 71526 bytes, 5 tensors)

lstm.weight_ih_l0 f4 [256, 1]
0.6650802 -1.3271025 -0.32074398 -1.4425888 -0.26990816 -0.65558535 -0.5278079 0.3295545
0.26939785 0.8080291 -0.083238095 0.42012626 1.0705606 -0.0676949 2.1637077 1.5190518
-0.1730125 -0.15877992 -0.38751104 1.4758351 0.83446443 -0.29027542 0.108856276 0.41624665
0.32282874 -1.0086174 0.97084975 0.071846515 0.6156164 0.50429773 -1.1421502 0.21013415
-1.0362844 2.038481 1.2389352 -0.19580562 0.492061 -0.18935366 0.016272489 -0.3862131
0.46182266 1.0463399 0.6318173 0.85221094 -1.949036 -0.64478314 0.18931285 0.08358817
0.5886419 -1.0207807 0.2098252 0.7728881 0.2130216 1.3146088 -0.21592413 0.26322046
1.0226036 -0.28761294 -0.23804873 0.49189556 1.548069 -1.0735348 0.16412091 1.1524762
-0.20129034 -1.0530962 -1.0298392 -0.932796 0.3504999 -0.4380501 0.044867408 -0.8725151
0.28589973 -0.52960443 0.3208593 1.4944323 -0.11273477 -0.44734812 0.6769456 0.5076152
-0.67246795 -0.8585681 -1.339091 0.67993134 0.19760412 0.11997643 0.6510579 -0.50998306
-0.060474798 0.18515146 -0.38917598 0.45513165 0.6059363 -0.38622373 0.20690693 -1.0378932
-1.1284038 0.25277713 0.91767085 -0.2786939 -0.16530903 0.18819417 -0.58984697 -0.5336014
-0.47721305 0.53438896 0.3728836 0.63982826 -1.1807237 0.14491743 0.17726286 0.0060519087
-0.9263406 -0.98387456 -0.0062946207 0.18349373 0.14299898 0.22090705 0.5442467 0.2066629
-0.69089603 -1.32247 -0.38510898 -0.34031138 1.0878897 -1.2152153 0.035548236 0.4578017
-1.0255203 -1.2787013 -1.2806365 -1.3230205 -1.9113377 -2.4460192 1.9531529 -1.1913017
-1.3344147 1.0212172 0.06244251 2.0126255 -0.8705898 0.989178 -1.8036623 1.4231031
-1.2734221 -1.7045766 1.2537816 -1.4559829 0.5762267 -0.74733496 -1.9196371 -1.0865461
1.5274535 1.580596 1.0729228 -0.4720454 -1.621386 1.0994574 0.9879609 -1.4924701
-1.2971671 1.6586757 1.1433017 -1.1235282 0.7852402 0.63999695 -1.3781165 -0.8617214
-0.9824659 -1.1832739 -1.6012578 1.7885867 -1.6879804 1.2108172 0.14404522 -0.84564704
-1.3738133 -1.3118085 0.19132315 -0.46257403 -0.5378605 1.2146828 -0.28844112 -1.3582541
-1.2220452 -0.91190237 -1.1110258 1.1437715 -1.3770727 -1.5880916 0.33299738 1.214559
0.8082885 -1.1720244 -0.42800558 -1.5092489 -0.59971184 -0.22223832 -0.92032534 0.2613607
-0.05419349 0.5924468 -0.029477715 0.54341024 1.0701811 0.023913208 2.1376393 1.5135685
-0.2289485 0.039562542 -0.25104007 1.709138 0.93566704 -0.23749092 -0.105170704 0.3051318
0.46230978 -1.2644743 0.9278769 0.7299607 0.5440659 0.46955866 -0.6225738 0.035521902
-1.0749056 1.9479883 1.0758585 -0.18489338 0.601098 -0.01790565 0.089360766 -0.32478774
0.41738686 0.92176616 0.55443585 0.8162073 -1.8257761 -0.6436633 0.1759064 0.15573004
0.45295355 -1.025243 0.17071314 0.6324976 0.3723776 1.0946962 0.005289313 0.4323357
0.97581595 -0.8036477 -0.23360066 0.5255245 1.7823945 -1.3621678 0.14011857 1.0937839
00000000: b242 2a3f 7fde a9bf 8e38 a4be c0a6 b8bf
00000010: 6731 8abe 71d4 27bf 6b1e 07bf 5ebb a83e
00000020: 84ee 893e ffda 4e3f bc78 aabd ca1a d73e
00000030: 2108 893f a0a3 8abd 307a 0a40 4a70 c23f
00000040: 302a 31be 3497 22be d967 c6be 2ae8 bc3f
00000050: 769f 553f fb9e 94be 0af0 de3d 481e d53e
00000060: cf49 a53e 601a 81bf 9c89 783f 4424 933d
00000070: 0999 1d3f a819 013f fa31 92bf 682d 573e
00000080: f8a4 84bf 7976 0240 6e95 9e3f 4581 48be
00000090: 6bef fb3e ede5 41be e24d 853c b9bd c5be
000000a0: 0574 ec3e 77ee 853f c7be 213f 7f2a 5a3f
000000b0: 037a f9bf 8210 25bf 3adb 413e 4630 ab3d
000000c0: 3cb1 163f f1a8 82bf 6bdc 563e ffdb 453f
000000d0: 5622 5a3e 1a45 a83f 371b 5dbe d5c4 863e
000000e0: ade4 823f 0142 93be 0cc3 73be bcd9 fb3e
000000f0: 2027 c63f 9769 89bf 500f 283e 5784 933f
00000100: 0e1f 4ebe dbcb 86bf c5d1 83bf b8cb 6ebf
00000110: b974 b33e 1a48 e0be e3c6 373d 265d 5fbf
00000120: 7361 923e 2894 07bf ac47 a43e 8f49 bf3f
00000130: 7de1 e6bd d00a e5be 4f4c 2d3f 12f3 013f
00000140: dc26 2cbf 1ecb 5bbf 5567 abbf fb0f 2e3f
00000150: bc58 4a3e 34b6 f53d bbab 263f 408e 02bf
00000160: 6cb4 77bd 5898 3d3e 1342 c7be 0407 e93e
00000170: a41e 1b3f 1ebf c5be 69df 533e afd9 84bf
00000180: 896f 90bf 016c 813e 7aec 6a3f f8b0 8ebe
00000190: c546 29be f9b5 403e 3600 17bf 1a9a 08bf
000001a0: 4555 f4be b7cd 083f 99ea be3e c9cb 233f
000001b0: f421 97bf 3c65 143e 6584 353e 174f c63b
000001c0: a824 6dbf 34df 7bbf 1b43 cebb c8e5 3b3e
000001d0: 536e 123e 7535 623e c053 0b3f 709f 533e
000001e0: 90de 30bf b246 a9bf 012d c5be 4b3d aebe
000001f0: f83f 8b3f 2d8c 9bbf 079b 113d fc64 ea3e
00000200: 4044 83bf 7cac a3bf e6eb a3bf bc58 a9bf
00000210: b7a6 f4bf 948b 1cc0 ea00 fa3f 937c 98bf
00000220: 1ace aabf 3fb7 823f b8c3 7f3d dbce 0040
00000230: f9de 5ebf c53a 7d3f 68de e6bf 3e28 b63f
00000240: 7fff a2bf 912f dabf ea7b a03f a65d babf
00000250: 9883 133f 5851 3fbf abb6 f5bf f113 8bbf
00000260: 9983 c33f f850 ca3f 8955 893f efaf f1be
00000270: 9489 cfbf 05bb 8c3f 01eb 7c3f 4309 bfbf
00000280: 9209 a6bf 7c4f d43f b657 923f c6cf 8fbf
00000290: 8005 493f d7d6 233f 1f66 b0bf c699 5cbf
000002a0: e382 7bbf 8575 97bf 04f6 ccbf 69f0 e43f
000002b0: be0f d8bf 0ffc 9a3f 9780 133e 537c 58bf
000002c0: 1dd9 afbf 57e9 a7bf 37ea 433e 81d6 ecbe
000002d0: 3ab1 09bf ba7a 9b3f 8eae 93be 45db adbf
000002e0: fa6b 9cbf 6f72 69bf 1836 8ebf 1b67 923f
000002f0: eb43 b0bf 9646 cbbf a27e aa3e ab76 9b3f
00000300: ffeb 4e3f e504 96bf 8c23 dbbe 112f c1bf
00000310: b786 19bf 7192 63be 719a 6bbf 12d1 853e
00000320: fef9 5dbd 98aa 173f 407b f1bc ef1c 0b3f
00000330: b2fb 883f a2e5 c33c 15cf 0840 9dbc c13f
00000340: 7a71 6abe 550c 223d 5388 80be 09c5 da3f
00000350: e087 6f3f d230 73be bd63 d7bd 3c3a 9c3e
00000360: deb3 ec3e 4bda a1bf 5789 6d3f b4de 3a3f
00000370: e747 0b3f fe69 f03e ff60 1fbf 6a7f 113d
00000380: 8296 89bf ae57 f93f bbb5 893f b154 3dbe
00000390: 8fe1 193f dfae 92bc c702 b73d 944a a6be
000003a0: bbb3 d53e def8 6b3f 82ef 0d3f f6f2 503f
000003b0: 08b3 e9bf 1ec7 24bf cf20 343e b277 1f3e
000003c0: 87e9 e73e 2a3b 83bf 6dcf 2e3e 5deb 213f
000003d0: 47a8 be3e 011f 8c3f f951 ad3b 1b5b dd3e
000003e0: 13cf 793f dbbb 4dbf 0335 6fbe c688 063f
000003f0: 8125 e43f 845b aebf 3e7b 0f3e 1c01 8c3f

lstm.weight_hh_l0 f4 [256, 64]
-0.0027622678 -0.033172198 -0.3055864 -0.18303885 0.56171066 0.18392353 -0.1475289 -0.6420115
0.3535657 0.18315406 -0.22129938 -0.0304184 -0.13324708 0.11024635 0.069075264 0.20164058
0.05811552 -0.11636572 0.11797504 -0.006707171 -0.11916664 -0.13553843 0.16900112 0.08102943
-0.12017706 0.2433559 0.17568018 0.39223042 -0.072245084 0.44526982 0.28314918 -0.49257606
-0.18643874 -0.18650036 -0.2102277 0.16480576 0.16457063 0.28604838 0.07904994 0.045080986
-0.18127829 0.12940386 0.13356349 0.11655865 -0.63458484 0.21267982 0.046284623 0.013571098
0.0037223925 -0.65484947 0.1544791 0.24194425 0.1258294 -0.055597577 0.03368443 0.031065539
0.14332063 -0.14458606 -0.33735177 0.023236142 0.4148845 -0.70726323 -0.052044373 -0.48045218
0.09771205 0.1695587 2.0776 1.4879141 1.3500458 0.20728871 -1.3289936 1.1216596
1.3737023 -1.3518974 -0.13226736 -0.46308804 0.11146708 -1.4262732 0.28295943 -0.5205274
1.6650562 0.9502223 -1.0498083 0.5260876 -0.074153766 0.18163122 0.94715357 1.2857478
-0.41485462 -1.3476621 -0.16992106 1.6122923 0.71171373 -0.09106424 -1.5816771 0.7866837
1.5698723 -0.5116234 0.40236104 1.4302502 -1.4922038 -0.14197382 1.5847938 0.6511568
1.1054019 1.0497104 1.5865353 -0.8129095 -0.46423474 -0.5769409 0.29463717 0.13292406
0.73915035 -0.049493562 -0.16862695 0.060509946 0.12909177 -0.28495318 0.45510778 0.532915
0.9254538 0.70207435 1.4798263 -1.4147248 1.5577497 0.44492534 -0.25918624 -1.5800079
-0.08283485 -0.35843295 -0.8466923 0.08962428 0.1985551 -0.34061268 0.17998177 -0.30418518
-0.40416092 0.24300605 0.2928439 -0.33087045 -0.14197871 -0.25045514 -0.16655338 0.40121457
-0.4315943 0.074142165 0.82196265 -0.5388679 0.2742374 0.2824103 0.06313729 -0.16582099
-0.08681423 0.73147637 -0.096894115 -0.4110185 -0.6164752 -0.028577324 0.20705993 -0.20815718
-0.7846298 0.21935083 0.5731972 -0.26552954 -0.6277929 -0.3173437 -0.22404537 -1.299132
-0.11507954 -0.8722757 -0.97422034 -0.41315734 -0.91822886 -0.20715575 -0.17050995 0.08894906
-0.39705893 -0.7692476 -0.123330064 -0.057269134 0.018905666 0.11557132 0.2352331 -0.09884433
-0.28050905 -1.6719388 -0.060162555 0.6706717 -0.6284765 -0.29570207 0.10042188 0.6207401
-0.37778577 -1.0611948 -2.382009 -0.49186134 -0.32732525 -0.29818225 0.37173954 -2.2694397
-0.6414218 2.2010016 -0.14759867 0.91586554 -0.45897567 1.1500555 -1.3922244 1.4736471
-2.3352137 -1.2389953 1.5943105 -2.0679717 0.51525515 -0.38682044 -0.26568568 -1.8002465
0.5832855 1.0779805 0.9741412 -1.3280641 -1.7361888 0.68806314 1.5127205 -1.7890767
-1.9666668 1.2460121 1.2635556 -1.2932158 -0.7807743 0.59220064 -2.3 -1.3192922
-1.2128812 -1.6228039 -1.4894627 1.0731097 -1.283138 0.83316165 -0.07107326 -0.46752986
-1.8612386 -1.8383815 0.30683833 -0.4062372 -0.005536324 1.0559648 -0.00089279347 -0.9901822
-1.8304204 -2.1517212 -1.9921815 2.090005 -1.27651 -1.2842171 0.054958183 0.8287973
00000000: 2a07 35bb 92df 07bd d275 9cbe 896e 3bbe
00000010: 45cc 0f3f 7356 3c3e d111 17be de5a 24bf
00000020: 9006 b53e bd8c 3b3e 4e9c 62be 0230 f9bc
00000030: ec71 08be d7c8 e13d 5577 8d3d de7a 4e3e
00000040: 8a0a 6e3d 2751 eebd e69c f13d d4c7 dbbb
00000050: a40d f4bd 96ca 0abe a10e 2d3e c2f2 a53d
00000060: 641f f6bd 4a32 793e 81e5 333e 6dd2 c83e
00000070: 3bf5 93bd 68fa e33e eef8 903e ee32 fcbe
00000080: cce9 3ebe f3f9 3ebe ee45 57be d7c2 283e
00000090: 3485 283e ef74 923e efe4 a13d d7a6 383d
000000a0: 04a1 39be 7282 043e dec4 083e 4db6 ee3d
000000b0: 2774 22bf bdc8 593e f294 3d3d 5059 5e3c
000000c0: 62f3 733b 37a4 27bf c52f 1e3e 3cc0 773e
000000d0: 6cd9 003e 49ba 63bd aff8 093d 287d fe3c
000000e0: a5c2 123e 5e0e 14be 5fb9 acbe b959 be3c
000000f0: be6b d43e 340f 35bf 7b2c 55bd d4fd f5be
00000100: 411d c83d cca0 2d3e 66f7 0440 f873 be3f
00000110: 4dce ac3f 7e43 543e 761c aabf 8b92 8f3f
00000120: 7ad5 af3f f90a adbf 1871 07be e019 edbe
00000130: da48 e43d 1f90 b6bf 0fe0 903e 4941 05bf
00000140: 9020 d53f c541 733f 1e60 86bf adad 063f
00000150: eedd 97bd 89fd 393e a878 723f 6293 a43f
00000160: d367 d4be 3180 acbf c9ff 2dbe 985f ce3f
00000170: df32 363f e37f babd 6574 cabf 1a64 493f
00000180: 93f1 c83f c0f9 02bf 4402 ce3e 7012 b73f
00000190: 8900 bfbf 9661 11be 86da ca3f 36b2 263f
000001a0: cf7d 8d3f e95c 863f 9713 cb3f d61a 50bf
000001b0: 2db0 edbe 66b2 13bf afda 963e 3f1d 083e
000001c0: f538 3d3f c3b9 4abd 8bac 2cbe 47d9 773d
000001d0: a230 043e 62e5 91be e303 e93e 1e6d 083f
000001e0: 8aea 6c3f 25bb 333f f36a bd3f b415 b5bf
000001f0: 5864 c73f 41cd e33e 0fb4 84be b33d cabf
00000200: 51a5 a9bd 8684 b7be d4c0 58bf ef8c b73d
00000210: 0752 4b3e c964 aebe 244d 383e 29be 9bbe
00000220: 2eee cebe 94d6 783e a3ef 953e da67 a9be
00000230: de62 11be a83b 80be f88c 2abe ff6b cd3e
00000240: eef9 dcbe d9d7 973d 256c 523f 3ff3 09bf
00000250: d868 8c3e 1598 903e 204e 813d facc 29be
00000260: a9cb b1bd 0942 3b3f 6c70 c6bd 0471 d2be
00000270: 52d1 1dbf fe1a eabc 8507 543e 2827 55be
00000280: 80dd 48bf 819d 603e 0dbd 123f 7df3 87be
00000290: 09b7 20bf e07a a2be 266c 65be f549 a6bf
000002a0: d2ae ebbd 764d 5fbf 8166 79bf 5c89 d3be
000002b0: 0c11 6bbf a320 54be 299a 2ebe ed2a b63d
000002c0: 4f4b cbbe 69ed 44bf 7994 fcbd 0a93 6abd
000002d0: 0ee0 9a3c a8b0 ec3d f2e0 703e e56e cabd
000002e0: e29e 8fbe 1702 d6bf 036d 76bd 24b1 2b3f
000002f0: d6e3 20bf 4366 97be fda9 cd3d d3e8 1e3f
00000300: 236d c1be 3bd5 87bf d672 18c0 40d5 fbbe
00000310: 2d97 a7be 58ab 98be a554 be3e 803e 11c0
00000320: 3834 24bf 36dd 0c40 1b24 17be 2a76 6a3f
00000330: dcfe eabe 0535 933f 6934 b2bf 78a0 bc3f
00000340: 2474 15c0 6697 9ebf 5e12 cc3f a659 04c0
00000350: c3e7 033f 540d c6be f407 88be 7a6e e6bf
00000360: 3352 153f 44fb 893f 5161 793f 01fe a9bf
00000370: 6f3b debf e824 303f d3a0 c13f 7700 e5bf
00000380: bdbb fbbf 537d 9f3f 31bc a13f 1888 a5bf
00000390: d3e0 47bf 769a 173f 3333 13c0 91de a8bf
000003a0: b13f 9bbf 0ab8 cfbf b7a6 bebf a95b 893f
000003b0: de3d a4bf 154a 553f db8e 91bd 1360 efbe
000003c0: 113d eebf 1650 ebbf ea19 9d3e 53fe cfbe
000003d0: 0d6a b5bb db29 873f 5b0a 6aba 957c 7dbf
000003e0: 374b eabf cdb5 09c0 ceff febf a4c2 0540
000003f0: ae64 a3bf 3a61 a4bf d51b 613d 0f2c 543f

lstm.bias_ih_l0 f4 [256]
-1.985716 -1.2687664 -0.52413654 -0.4047684 0.3911063 0.63064307 0.3162813 -0.7262937
-0.5634006 -0.5774817 -2.7647405 -1.4655037 -2.2026193 -0.66986996 -1.1730068 -1.6530735
-0.08270897 -0.6934153 -1.3603303 -0.65037835 -2.290101 -2.6336122 0.05594276 -1.2763317
-2.0397954 -0.49305174 -2.0964775 -0.35597596 -1.6363778 -2.457236 -1.5129122 -1.5252895
-0.79965717 -1.1862421 -0.94893074 -1.4209087 -0.65041786 -2.2708285 -0.23601186 -1.3313181
-1.7441072 -1.466068 -0.42494705 -1.4237171 -0.50902444 -2.1825058 -2.8984523 -2.4353733
-1.4524624 -1.3227233 -2.8630705 -2.4206517 -2.9057708 -2.0084193 -2.8057852 -2.2948687
-0.95439786 -0.70242476 -0.7669397 -0.22627643 -0.8315263 -0.5959233 -2.8718843 -0.22737288
-1.564791 -0.9909397 -0.9332093 -0.22972554 -0.34990722 -0.09731744 -0.588229 -1.0998696
-0.5567175 -1.1615199 -1.5415769 -0.79813135 -1.6663918 -0.4209973 -1.131665 -0.8454282
-0.54879445 -0.60158354 -1.3654549 -0.7867831 -1.7872405 -1.524147 -0.21753511 -1.5797479
-1.32477 -0.94890517 -1.4673871 0.5543763 -0.93023354 -1.2950345 -0.0028434931 -1.7836596
-0.93522555 -1.5434182 -0.20828082 -1.7307115 -0.46027398 -1.6584446 -0.9287711 -0.24294402
-1.7427889 -0.8407815 -0.34524298 -1.5659287 -0.39695397 -1.5712714 -1.658964 -1.4591777
-1.6162431 -0.8452341 -1.600596 -1.5779532 -1.5314579 -1.2853537 -1.4075993 -0.97583634
-1.728238 0.4148928 -0.5932156 -1.2178969 -0.29508215 -0.46968597 -1.4131038 -0.11205093
-0.14957912 0.1733273 -0.30663785 -0.1706429 -0.27337763 -0.20774989 0.27575818 -0.08959127
-0.30530414 0.21959865 0.08516546 0.1314939 -0.1125435 0.26454338 -0.43029433 0.33977732
-0.32916805 -0.23000753 0.23267227 -0.3704908 0.14033335 -0.1511805 -0.18588832 -0.30797306
0.20128405 0.2853085 0.124244645 -0.15750739 -0.3011915 0.103162766 0.16288596 -0.3334932
-0.1751651 0.42204064 -0.049686372 -0.20666619 0.39490974 0.20936868 -0.2963281 0.11809715
-0.22637196 -0.17777555 -0.40582502 0.27771258 0.25092763 0.19449747 0.04553499 -0.13495523
-0.3122426 -0.044023037 0.012883987 -0.12150464 -0.023490762 0.15266424 -0.048027385 -0.28456256
-0.34528556 0.2842476 -0.32986793 0.22951917 -0.25719923 -0.5061309 0.010425088 0.48777813
-1.9880598 -1.3283899 -0.44614974 -0.3955804 -0.008750466 -0.6077541 -0.27279305 -0.79781944
-0.68715525 -0.39659756 -2.684821 -1.5186421 -2.0454652 -0.83506286 -1.0504845 -1.4761
-0.04747197 -0.8001069 -1.4716504 -0.61353797 -2.2134326 -2.5189803 -0.73383176 -1.3022395
-1.8996718 -1.0226154 -1.992655 -0.79084575 -1.7198788 -2.5192208 -1.7111456 -1.380544
-0.71348464 -1.2577318 -0.9038816 -1.4265044 -0.67378294 -2.3463726 -0.25024766 -1.2878613
-1.8679916 -1.3822968 -0.5702081 -1.5601709 -0.66937816 -2.0954018 -2.7210433 -2.3641162
-1.5304531 -1.2935361 -2.7617316 -2.4290874 -2.9056857 -2.0062003 -3.0396101 -2.2716231
-1.0250312 -0.8897495 -0.87302697 -0.36597583 -0.7638723 -1.1033283 -2.79574 -0.4069725
00000000: f12b febf f066 a2bf d02d 06bf ce3d cfbe
00000010: 163f c83e d371 213f 9fef a13e 62ee 39bf
00000020: 063b 10bf d7d5 13bf 82f1 30c0 a095 bbbf
00000030: b7f7 0cc0 997c 2bbf 1625 96bf ea97 d3bf
00000040: 5263 a9bd aa83 31bf 4e1f aebf 327f 26bf
00000050: 0491 12c0 1a8d 28c0 3c24 653d d65e a3bf
00000060: 028c 02c0 4771 fcbe b02c 06c0 7b42 b6be
00000070: d474 d1bf 5b43 1dc0 1ba7 c1bf b03c c3bf
00000080: 55b6 4cbf c8d6 97bf 20ed 72bf 56e0 b5bf
00000090: c981 26bf 4155 11c0 18ad 71be a268 aabf
000000a0: e83e dfbf 1ea8 bbbf a992 d9be 5d3c b6bf
000000b0: 6d4f 02bf 2dae 0bc0 3e80 39c0 28dd 1bc0
000000c0: 4aea b9bf ff4e a9bf 8c3c 37c0 f5eb 1ac0
000000d0: 26f8 39c0 f189 00c0 fc91 33c0 21df 12c0
000000e0: 6b53 74bf 1cd2 33bf 2956 44bf 02b5 67be
000000f0: e8de 54bf 6e8e 18bf f4cc 37c0 70d4 68be
00000100: 124b c8bf 39ae 7dbf cee6 6ebf 2c3d 6bbe
00000110: 0a27 b3be 5e4e c7bd 2d96 16bf 87c8 8cbf
00000120: 0a85 0ebf afac 94bf 6452 c5bf 5652 4cbf
00000130: 544c d5bf f58c d7be 66da 90bf fc6d 58bf
00000140: cb7d 0cbf 6101 1abf 3ac7 aebf 9e6a 49bf
00000150: 4cc4 e4bf 4017 c3bf 86c1 5ebe 2e35 cabf
00000160: 1092 a9bf 73eb 72bf 57d3 bbbf 9beb 0d3f
00000170: c923 6ebf b1c3 a5bf e659 3abb f54e e4bf
00000180: f16a 6fbf ba8e c5bf 9147 55be f487 ddbf
00000190: 08a9 ebbe ea47 d4bf f1c3 6dbf 51c6 78be
000001a0: b513 dfbf 753d 57bf b0c3 b0be 5a70 c8bf
000001b0: 8d3d cbbe 6c1f c9bf ef58 d4bf 56c6 babf
000001c0: 0ee1 cebf 4361 58bf 54e0 ccbf 5ffa c9bf
000001d0: d006 c4bf 7886 a4bf 372c b4bf 69d0 79bf
000001e0: e736 ddbf d46c d43e fadc 17bf 0ce4 9bbf
000001f0: 0215 97be ae7a f0be 96e0 b4bf f57a e5bd
00000200: 452b 19be b67c 313e a3ff 9cbe 03bd 2ebe
00000210: 27f8 8bbe 63bc 54be 2d30 8d3e a17b b7bd
00000220: d350 9cbe 78de 603e 3b6b ae3d 56a6 063e
00000230: 357d e6bd 3b72 873e 8a4f dcbe 4bf7 ad3e
00000240: b788 a8be 1887 6bbe a441 6e3e f8b0 bdbe
00000250: 8cb3 0f3e 10cf 1abe 8259 3ebe a5ae 9dbe
00000260: 681d 4e3e f513 923e fa73 fe3d 9e49 21be
00000270: c635 9abe 0047 d33d 94cb 263e 9fbf aabe
00000280: 7b5e 33be b615 d83e f083 4bbd 4da0 53be
00000290: 9c31 ca3e be64 563e 51b8 97be ebdc f13d
000002a0: 0dce 67be cb0a 36be 4cc8 cfbe 5830 8e3e
000002b0: 9679 803e 582a 473e e682 3a3d b431 0abe
000002c0: 43de 9fbe 8051 34bd 5c17 533c 6dd7 f8bd
000002d0: b36f c0bc 0454 1c3e 5db8 44bd 2fb2 91be
000002e0: 45c9 b0be e788 913e 73e4 a8be 1307 6b3e
000002f0: 9eaf 83be cb91 01bf fdcd 2a3c 0ebe f93e
00000300: be78 febf ae08 aabf bd6d e4be 8489 cabe
00000310: 1d5e 0fbc c695 1bbf 88ab 8bbe e53d 4cbf
00000320: 68e9 2fbf d60e cbbe 1bd4 2bc0 dd62 c2bf
00000330: e7e8 02c0 aec6 55bf 4776 86bf d8f0 bcbf
00000340: f871 42bd ced3 4cbf 0a5f bcbf d310 1dbf
00000350: e1a8 0dc0 f936 21c0 66dc 3bbf c9af a6bf
00000360: 7228 f3bf 10e5 82bf 520f ffbf de74 4abf
00000370: fd24 dcbf ea3a 21c0 d206 dbbf aab5 b0bf
00000380: eea6 36bf 5bfd a0bf c964 67bf b297 b6bf
00000390: 0a7d 2cbf f82a 16c0 7620 80be a4d8 a4bf
000003a0: 591a efbf 1aef b0bf 28f9 11bf aeb3 c7bf
000003b0: 5e5c 2bbf 101b 06c0 9325 2ec0 ae4d 17c0
000003c0: e3e5 c3bf 9792 a5bf 36c0 30c0 2b76 1bc0
000003d0: c1f6 39c0 9665 00c0 f988 42c0 4662 11c0
000003e0: 3934 83bf a0c6 63bf b27e 5fbf 2f61 bbbe
000003f0: 238d 43bf dd39 8dbf 67ed 32c0 b35e d0be

lstm.bias_hh_l0 f4 [256]
-2.2101345 -1.4364414 -0.4756853 -0.40180218 0.22530824 0.66956335 0.40959302 -0.8580916
-0.58910096 -0.58107346 -2.6458812 -1.3993032 -2.0577285 -0.72358483 -1.2300394 -1.5434754
-0.05579773 -0.7741213 -1.3161035 -0.6939899 -2.302928 -2.4174628 0.088030174 -1.346674
-2.000275 -0.49216515 -2.1255198 -0.36923173 -1.6415768 -2.5175354 -1.5729412 -1.5252447
-0.8656853 -1.2824912 -1.0382369 -1.5113013 -0.61840564 -2.3283856 -0.29876998 -1.5091188
-1.6904445 -1.3590319 -0.48311758 -1.4259218 -0.5258265 -2.1560223 -2.7541137 -2.365932
-1.561672 -1.378935 -2.916061 -2.3934386 -2.723166 -1.856996 -2.8235693 -2.1904523
-1.1324545 -0.73288393 -0.7472761 -0.38896033 -0.83111537 -0.5433204 -2.862774 -0.34371957
-1.5834863 -0.94149333 -1.0256184 -0.13449249 -0.4012794 0.093068786 -0.55366474 -1.2718059
-0.51673925 -1.0032125 -1.6337056 -0.9880971 -1.7449086 -0.33962092 -1.2277853 -0.943004
-0.5958155 -0.7707512 -1.4867125 -0.7667891 -1.6331265 -1.3935039 -0.43863803 -1.6407242
-1.3961284 -0.9571901 -1.4620672 0.4626783 -0.79977053 -1.3521208 -0.17859955 -1.7422041
-0.93893903 -1.4209969 -0.3231487 -1.8229036 -0.4762959 -1.5450418 -0.85658365 -0.13431667
-1.7949933 -0.84667426 -0.37963086 -1.404805 -0.5016447 -1.5476213 -1.518565 -1.2503936
-1.6512907 -0.85098 -1.4473703 -1.5440656 -1.4363267 -1.2091994 -1.370871 -0.9913893
-1.8639814 0.4693343 -0.5665293 -1.3347147 -0.37918386 -0.35339212 -1.4566114 -0.023431191
-0.2787324 0.20987883 -0.20764445 -0.2943535 -0.3212406 -0.24180809 0.2516259 -0.31525978
-0.19887903 0.20343766 -0.048827548 0.21050549 -0.1879548 0.19835928 -0.43984538 0.21191518
-0.24352974 -0.3247236 0.24141625 -0.3823104 0.072729394 -0.098472364 -0.2263045 -0.15979527
0.17539418 0.14807287 0.2249638 -0.084524706 -0.26382482 0.21007572 0.171152 -0.15894993
-0.33148333 0.4090172 -0.007421263 -0.090765625 0.40744656 0.03762653 -0.38792193 0.027764693
-0.22887512 -0.28323108 -0.37331307 0.28729153 0.14000101 0.272936 0.018228512 -0.11652572
-0.19297518 0.031550176 0.011211055 -0.049840707 -0.062499706 0.10840598 0.06470816 -0.12812148
-0.4352987 0.32305446 -0.14553669 0.42720836 -0.2732504 -0.41511235 0.010170395 0.5288747
-2.1771467 -1.3195481 -0.44789693 -0.30344248 0.07736104 -0.53308034 -0.16862151 -0.7185175
-0.7119101 -0.4665469 -2.6263196 -1.3866266 -2.2256143 -0.7513733 -1.1262761 -1.642436
0.04500842 -0.8912389 -1.4552827 -0.68057317 -2.314224 -2.4766552 -0.77592325 -1.3105248
-2.02486 -0.93727577 -2.2088983 -0.8026358 -1.5765475 -2.4944859 -1.5822718 -1.5448971
-0.6756476 -1.0891439 -0.8872245 -1.6193454 -0.56646943 -2.4506655 -0.33840144 -1.3530903
-1.7276069 -1.318603 -0.49105453 -1.5831034 -0.63669777 -2.1197023 -2.8425934 -2.3211856
-1.3524581 -1.3058769 -2.8321495 -2.576845 -2.6724021 -2.0563576 -2.8005426 -2.4140105
-0.93565947 -0.8789042 -0.81648004 -0.2781429 -0.78565365 -1.076784 -2.876063 -0.36137003
00000000: d872 0dc0 50dd b7bf 068d f3be 04b9 cdbe
00000010: 34b7 663e 8168 2b3f 2db6 d13e e4ab 5bbf
00000020: 52cf 16bf 3bc1 14bf 1e56 29c0 5e1c b3bf
00000030: d3b1 03c0 db3c 39bf ee71 9dbf 9a90 c5bf
00000040: 298c 64bd d02c 46bf 1476 a8bf 52a9 31bf
00000050: 2c63 13c0 b6b7 1ac0 2a49 b43d d05f acbf
00000060: 8104 00c0 12fd fbbe 8408 08c0 f10b bdbe
00000070: 301f d2bf 4d1f 21c0 2356 c9bf 383b c3bf
00000080: 8d9d 5dbf ac28 a4bf f2e4 84bf 5272 c1bf
00000090: d54f 1ebf 4504 15c0 61f8 98be ce2a c1bf
000000a0: 7c60 d8bf c2f4 adbf 305b f7be 9b84 b6bf
000000b0: 919c 06bf 45fc 09c0 6643 30c0 6e6b 17c0
000000c0: dee4 c7bf f180 b0bf bea0 3ac0 192e 19c0
000000d0: 5a48 2ec0 0cb2 edbf 5cb5 34c0 5f30 0cc0
000000e0: 45f4 90bf 489e 3bbf 7d4d 3fbf cf25 c7be
000000f0: fac3 54bf 0c17 0bbf b037 37c0 03fc afbe
00000100: aeaf cabf b505 71bf 7747 83bf 66b8 09be
00000110: 7e74 cdbe d99a be3d f9bc 0dbf 89ca a2bf
00000120: 0649 04bf 4469 80bf 441d d1bf eef3 7cbf
00000130: 2a59 dfbf cbe2 adbe 1228 9dbf b668 71bf
00000140: 5d87 18bf f34f 45bf 984c bebf 4a4c 44bf
00000150: 4a0a d1bf 565e b2bf 2a95 e0be 4003 d2bf
00000160: 56b4 b2bf 690a 75bf 0525 bbbf 2ce4 ec3e
00000170: c3bd 4cbf 4b12 adbf cde2 36be 8b00 dfbf
00000180: 4f5e 70bf 3ae3 b5bf bf73 a5be e854 e9bf
00000190: 0edd f3be eec3 c5bf 1149 5bbf 4f8a 09be
000001a0: 57c2 e5bf a5bf 58bf fa5e c2be a6d0 b3bf
000001b0: c96b 00bf 7418 c6bf 5760 c2bf e60c a0bf
000001c0: 7e5d d3bf d3d9 59bf 6e43 b9bf f1a3 c5bf
000001d0: 8ed9 b7bf 0cc7 9abf b378 afbf b0cb 7dbf
000001e0: f196 eebf 964c f03e 1008 11bf eed7 aabf
000001f0: 6324 c2be d0ef b4be 3e72 babf c5f2 bfbc
00000200: 03b6 8ebe 7aea 563e bfa0 54be 80b5 96be
00000210: a679 a4be 8a9c 77be 1cd5 803e bb69 a1be
00000220: f2a6 4bbe f651 503e 65ff 47bd c08e 573e
00000230: 3977 40be b21e 4b3e 6a33 e1be 4b00 593e
00000240: dc5f 79be 2c42 a6be d235 773e 30be c3be
00000250: 26f3 943d e1ab c9bd 5ebc 67be 5fa1 23be
00000260: 889a 333e 6aa0 173e e95c 663e 4a1b adbd
00000270: 0c14 87be 171e 573e 7842 2f3e c5c3 22be
00000280: 2fb8 a9be b46a d13e 112e f3bb 54e3 b9bd
00000290: d69c d03e 471e 1a3d b49d c6be c872 e33c
000002a0: 3d5e 6abe aa03 91be e422 bfbe e017 933e
000002b0: 6d5c 0f3e 44be 8b3e f653 953c 09a5 eebd
000002c0: 499b 45be c23a 013d 93ae 373c c525 4cbd
000002d0: b1ff 7fbd f403 de3d b685 843d 4732 03be
000002e0: 79df debe 6567 a53e 9207 15be 0ebb da3e
000002f0: 7ae7 8bbe 9b89 d4be baa1 263c 5564 073f
00000300: 5f56 0bc0 f4e6 a8bf bf52 e5be d05c 9bbe
00000310: 776f 9e3d f477 08bf 1eab 2cbe c3f0 37bf
00000320: be3f 36bf 3cdf eebe 9f15 28c0 fb7c b1bf
00000330: 7770 0ec0 005a 40bf d129 90bf 583b d2bf
00000340: c05a 383d 3c28 64bf b446 babf 0b3a 2ebf
00000350: 3f1c 14c0 8581 1ec0 e8a2 46bf 47bf a7bf
00000360: 4e97 01c0 4ef1 6fbf 975e 0dc0 8a79 4dbf
00000370: 4fcc c9bf a8a5 1fc0 e287 cabf 30bf c5bf
00000380: 3ef7 2cbf 1169 8bbf 2521 63bf b646 cfbf
00000390: 2404 11bf b4d7 1cc0 f442 adbe 1032 adbf
000003a0: 3922 ddbf fcc7 a8bf 806b fbbe 22a3 cabf
000003b0: a0fe 22bf 34a9 07c0 0ded 35c0 4e8e 14c0
000003c0: 591d adbf f926 a7bf f041 35c0 07eb 24c0
000003d0: a308 2bc0 5d9b 03c0 173c 33c0 267f 1ac0
000003e0: 6187 6fbf deff 60bf d604 51bf bf68 8ebe
000003f0: 9920 49bf 0fd4 89bf 6b11 38c0 7e05 b9be

fc.weight f4 [1, 64]
-0.16638032 -0.48998046 -0.2977517 0.1997952 -0.20113109 -0.34813732 0.3490114 -0.18649547
-0.21931458 0.3648611 0.23269515 0.23186505 -0.2121775 0.13227285 -0.46454245 0.19675109
-0.3418901 -0.24657112 0.2814246 -0.6201879 0.24564669 0.07854688 -0.2982494 -0.21621165
0.057851397 0.30684194 0.0899687 0.25535625 -0.11979646 0.07676788 -0.1362698 -0.32529283
-0.2496174 0.42922267 0.1841584 -0.07472902 0.32977384 -0.08686454 -0.36473772 0.13433315
-0.38680628 -0.17573279 -0.3120064 0.17286393 -0.5183876 0.0019138207 -0.014725488 0.018365776
-0.37722886 -0.4230548 -0.02584638 -0.12713353 0.06543487 0.17443988 0.16902004 -0.115778364
-0.53028125 -0.35379037 -0.11644285 0.49698085 -0.20008236 -0.33430493 -0.042934056 0.47211915
00000000: 9a5f 2abe b8de fabe e972 98be 1d97 4c3e
00000010: 4ff5 4dbe 0e3f b2be 9fb1 b23e abf8 3ebe
00000020: 0094 60be 13cf ba3e a347 6e3e 086e 6d3e
00000030: 0f45 59be 8972 073e 82d8 edbe 1e79 493e
00000040: 380c afbe 247d 7cbe e316 903e a2c4 1ebf
00000050: ce8a 7b3e 30dd a03d 25b4 98be 9666 5dbe
00000060: 96f5 6c3d 631a 9d3e 8341 b83d 0ebe 823e
00000070: d957 f5bd 7a38 9d3d 4f8a 0bbe c88c a6be
00000080: b49b 7fbe 13c3 db3e 0594 3c3e 870b 99bd
00000090: 1ed8 a83e 09e6 b1bd e7be babe a18e 093e
000000a0: 790b c6be 4cf3 33be 4ebf 9fbe 3e03 313e
000000b0: 0db5 04bf 2bd9 fa3a 2c43 71bc d373 963c
000000c0: 2424 c1be a49a d8be cabb d3bc 4b2f 02be
000000d0: b802 863d 5ea0 323e 9713 2d3e 351d edbd
000000e0: 83c0 07bf 0324 b5be 9779 eebd 4674 fe3e
000000f0: 64e2 4cbe 042a abbe 9fdb 2fbd 9ab9 f13e
