analysis/rnn_model.pth (torch, 19996 bytes, 5 tensors)

rnn.weight_ih_l0 f4 [64, 1]
000000 5b 5e cb bc 35 23 01 3d a8 55 4e 3f f1 b4 1d bf
       -0.024825266 0.031527717 0.8059945 -0.6160422
000010 fe a5 6d bc ee d9 8a 3f 30 46 0d 3e ab 5d 30 bd
       -0.014504908 1.0847757 0.13796306 -0.04305808
000020 77 5a 4c bf 94 08 21 bc 62 65 64 bf 2b 22 86 3b
       -0.7982554 -0.009828705 -0.892172 0.0040934286
000030 2d db 18 bf bb 40 27 bd 27 e4 85 3c cd da 90 bd
       -0.59709436 -0.040833216 0.016344143 -0.07072983
000040 a1 39 b2 3d 9d d0 12 bc f8 60 2f bc 97 07 16 bd
       0.08702398 -0.00896087 -0.0107042715 -0.036628332
000050 17 11 41 ba 6d d5 b9 bd d4 39 0e bc cb 51 3d bd
       -0.00073649123 -0.09073911 -0.0086807795 -0.046220582
000060 8c a6 7c bc 7e 13 fe bb c9 81 21 3e f8 55 55 bc
       -0.015420567 -0.0077537885 0.15772165 -0.013020985
000070 51 a1 8c 3c bb 72 ff 3c b0 b4 9d ba 55 93 2e 3b
       0.017166765 0.031182637 -0.0012031998 0.002663811
000080 2e 81 94 bc bc 6a 7f bd 49 80 01 bc 8c 7b 22 3c
       -0.018128004 -0.06235765 -0.007904121 0.009917151
000090 fa 46 5e 39 85 13 44 bc 2c cb ac bd cb a1 c1 3a
       0.0002119801 -0.011967544 -0.084371895 0.001477295
0000a0 2e 4d c7 3c cb 8e 04 bd d5 49 27 3a 42 0a 0c 3d
       0.024328794 -0.03236274 0.0006381546 0.03418947
0000b0 2f 98 36 bb 67 fe f0 3c 44 35 14 bc 5f da d1 bf
       -0.0027861705 0.029418183 -0.009045903 -1.6394767
0000c0 5b a0 05 bc 71 5e cb 3c 2c c1 f6 bd 06 c5 ed bc
       -0.0081559075 0.024825307 -0.12048563 -0.029024612
0000d0 74 ad b0 3e 2a e0 b5 bf 50 50 d8 bb 44 8f 23 3d
       0.34507334 -1.4209034 -0.006601371 0.03993155
0000e0 f3 8c 3a 3c c2 15 e4 3c d7 43 eb bc c5 fc b1 3e
       0.011386144 0.027842406 -0.028718872 0.3476316
0000f0 1e 61 6a 3b a3 43 2a 3c fe 53 4d 3c 89 ac 89 3d
       0.0035763453 0.010392102 0.012532232 0.067223616

rnn.weight_hh_l0 f4 [64, 64]
000000 fb 1a ea be 69 44 c6 bd de e2 02 be 1a 18 8d 3d
       -0.4572371 -0.09681017 -0.12781855 0.06889363
000010 72 09 97 3b 0f 1e b5 bc f4 22 c5 3c d8 5e 2c 3b
       0.0046092803 -0.02210906 0.024064519 0.0026301648
000020 53 ef 84 bd ec f2 e3 3d 38 d3 c1 3b 46 9f ee 3c
       -0.0649096 0.11130318 0.005915072 0.029128682
000030 46 71 b6 bd 1c e9 2c 3d da d3 29 be 09 8d 09 3e
       -0.08908324 0.042214498 -0.16584721 0.13432707
000040 83 d4 ce bd e1 4d b2 bd 98 76 ac 3d 18 8b c6 3d
       -0.10099127 -0.087062605 0.084210575 0.09694499
000050 70 27 a6 bc 4e 02 4b bc 73 02 01 be b6 40 f0 bc
       -0.020282477 -0.012390686 -0.1259859 -0.029327732
000060 a9 8e 84 bd 79 de 32 bd b3 6b d9 3b 48 de d1 bc
       -0.06472523 -0.043669198 0.006635153 -0.025618687
000070 54 1b 57 3d 72 00 11 3c 7a 2a 2b bd 76 8a a0 bb
       0.052516297 0.008850204 -0.041788556 -0.0048993183
000080 36 12 3e 3d c2 d4 89 3d ee 7a 34 bd 57 3a 10 bd
       0.046404086 0.067300335 -0.044062547 -0.035211887
000090 41 f8 a6 3d e9 de 29 3d d3 92 b6 3d fb 59 3e bd
       0.081528194 0.04147235 0.08914723 -0.04647253
0000a0 d3 0f 5d 3b d1 64 15 bd ce d4 bf 3b 2b 34 bc 3c
       0.0033731356 -0.0364731 0.0058542257 0.022974094
0000b0 80 88 73 3d d9 0f f1 bd 37 c5 3d bd bc 57 6c bd
       0.05945635 -0.11770601 -0.046330657 -0.057700858
0000c0 ba 07 df bc 18 53 19 bd 86 5d 68 3d d0 ac 1a be
       -0.027225364 -0.03743276 0.056729816 -0.15104985
0000d0 da 63 55 be 5e 0e 57 3c a3 cb 33 3d a9 aa b2 bd
       -0.20838872 0.013125984 0.043895375 -0.08723957
0000e0 0f fc 8c 3d 10 f1 55 bd 95 35 a1 bc 60 e9 91 3d
       0.06884014 -0.05223185 -0.01967887 0.07124591
0000f0 de 66 4e 3d 36 01 6d 3d ed 7a 8c 3d 76 9c c7 bc
       0.05039107 0.057862483 0.06859384 -0.024366599
000100 91 c0 99 3c 93 10 04 bf 11 41 63 3d 60 dc 74 bd
       0.01876858 -0.5158779 0.055481974 -0.05978048
000110 10 c8 a4 3c 37 ab d2 3a 4b fd 1b bd a5 8f 47 3d
       0.020114928 0.0016072755 -0.038083356 0.048720974
000120 ea ec 4b 3d 5c 56 e4 3c 34 8c 08 3d e9 9f fd bc
       0.049786486 0.02787321 0.033336833 -0.03096004
000130 da f7 3f bc 09 a3 97 bd 56 30 e3 3c c9 f0 90 3b
       -0.011716807 -0.07404143 0.02773301 0.004423235
000140 ce ca 47 3d a7 f0 52 3d c5 da bd bd 8e 8a 76 bd
       0.048777394 0.051499035 -0.092702426 -0.06019073
000150 c2 d3 3b 3d d3 5a 33 3d 6e 14 1e be e4 94 f2 3c
       0.045856245 0.04378779 -0.15437481 0.029612012
000160 fa 01 f2 3c 30 b5 77 3c 88 10 55 3d 26 51 1f bd
       0.029541958 0.015118882 0.05201772 -0.03889575
000170 ac c2 77 bc c1 06 79 3c 92 b3 39 3d 21 93 f2 bc
       -0.015122097 0.015199364 0.045337267 -0.029611172
000180 7e d4 29 bd 97 3c 3a bc 79 1c 02 bd fb b3 b2 3d
       -0.041462414 -0.011366985 -0.031765435 0.08725735
000190 c7 bb 9a 3d 12 e2 84 3c c0 02 b2 3c ff a4 a5 3b
       0.07555347 0.01622108 0.021729827 0.0050550695
0001a0 82 ad 34 bc 3a bb 4c 3b 94 80 c5 3c c4 b4 eb bc
       -0.011027696 0.0031239525 0.024109162 -0.02877272
0001b0 92 ec 9b 3c 3a dd c6 3a e3 b9 bc bd fa 3d 4b bd
       0.019033704 0.0015172132 -0.092151426 -0.049619652
0001c0 b6 fe 76 3c fa c6 ca 3c 0f 8e 53 bd 58 b5 c7 3d
       0.015075376 0.024753083 -0.05164915 0.097513855
0001d0 4b 92 c3 bb df 32 71 3c 4b 1b 3e bd 38 7f fd bc
       -0.005968367 0.014721601 -0.046412747 -0.030944452
0001e0 64 4e e2 3c 12 ff a9 3d 58 74 13 3d 36 6c 61 bd
       0.02762527 0.08300604 0.035999626 -0.05503484
0001f0 cf 02 03 3e ef 87 6e bd e1 ed 44 bd 75 c9 de 3d
       0.1279404 -0.058235105 -0.04807842 0.10878269
000200 fe 70 e2 3d e5 12 d9 3c 38 ff 4f 3e 23 c6 07 be
       0.11056708 0.026498267 0.20312202 -0.13259177
000210 f9 9f 08 3e 09 bc b1 3d f7 5e 41 bd 0c 27 83 bd
       0.13342275 0.08678443 -0.047209706 -0.06403932
000220 0f 57 55 bd 79 be e9 3d 01 d2 ba bc aa 7d 0c bd
       -0.05208498 0.11413283 -0.022805216 -0.03429953
000230 43 1f 1a bd 8d c4 7d 3d 21 2e 04 3e ab d3 2a 3c
       -0.03762747 0.061955024 0.12908222 0.010426442
000240 3f ee 1c bd 77 69 cf 3b 04 f3 8e 3d 5b 68 47 3c
       -0.038313147 0.006329711 0.06979945 0.012170876
000250 7c e1 00 3d 0c c1 37 3e 7c 46 b4 3d 8a 74 d4 3d
       0.03146504 0.17944735 0.08802506 0.103737906
000260 44 fa 4c bd 5e 29 0a 3d 0b 48 1a 3e ab 57 5c 3d
       -0.05004336 0.033730857 0.15066545 0.053794544
000270 9b bc 4b be 3d d2 b3 3c c5 3e 65 be 9c b3 79 3d
       -0.19896166 0.021950835 -0.22387226 0.060962304
000280 2b 63 65 bc 7b d3 9f bc 0a ab bd 3d 88 24 b7 bc
       -0.014000694 -0.019510021 0.09261139 -0.022356287
000290 e8 19 71 bd d1 fa 3a 3d d3 29 2e bc 2e 5f f1 3d
       -0.058862597 0.045649353 -0.010630089 0.11785732
0002a0 6d 10 03 3e b7 d1 9e 3d cb 2f 65 bc 76 fc 31 3e
       0.12799235 0.07754844 -0.0139884455 0.17381462
0002b0 90 c3 45 3d 76 73 25 3d 2f ab 95 3d 92 d9 fe 3e
       0.048282206 0.040393315 0.07308041 0.49775368
0002c0 59 a6 5c bd 5c 96 1e be 77 8d 9d bc bf 4c d7 3d
       -0.05386958 -0.15487045 -0.019232495 0.10512685
0002d0 c1 bb b6 3d 2f 63 0a 3f 61 90 80 bd ed 83 04 be
       0.0892253 0.5405759 -0.06277538 -0.1294095
0002e0 de 4f 90 bd 49 1f f8 bd 02 b1 cb 3c 8c 09 c8 bc
       -0.070464835 -0.12115342 0.024864677 -0.024418615
0002f0 f8 4f 96 bd af 6b fe 3c 6a f6 43 3e c5 06 56 3d
       -0.073394716 0.031057207 0.19136968 0.05225255
000300 57 9f 00 be d6 d9 ae 3c 75 ba 72 bc 14 f8 f9 3d
       -0.12560783 0.021344107 -0.014814963 0.1220552
000310 0a 89 c2 bb 7c 3e 83 bd f5 e8 68 bd 04 20 81 3b
       -0.0059367465 -0.06408402 -0.05686279 0.003940584
000320 45 44 c6 3d 77 38 4f 3e c5 08 14 3e 0b 07 af bc
       0.0968099 0.20236383 0.1445647 -0.021365663
000330 d0 37 13 be 8d c0 fd bc 4f 07 7c 3d 20 12 37 bd
       -0.1437676 -0.030975604 0.061530408 -0.04469502
000340 68 dc fd bd 22 39 01 bd 68 dd 17 be 78 d6 78 3d
       -0.12395555 -0.031548627 -0.14830554 0.06075141
000350 d4 17 a9 3d 0d 39 06 be c8 36 34 3d 4e 30 81 bc
       0.08256498 -0.131077 0.043997556 -0.015770104
000360 01 8d e4 bb da 69 43 3b c6 65 d4 ba 1a 96 39 bc
       -0.006974817 0.002981773 -0.0016204647 -0.011327291
000370 ac 02 f8 3c f0 3b 3a 3e 15 be 7e bd 5e 1b 23 3d
       0.030274712 0.18186927 -0.062192995 0.03982102
000380 b1 a0 8c bd c8 4c 0d 3d 63 92 00 be a5 2f 99 bd
       -0.06866587 0.034497052 -0.12555842 -0.074797906
000390 fe dd 2c bd 1c e3 16 bc 52 03 51 3e 28 43 b6 3d
       -0.042203896 -0.0092094205 0.20411423 0.08899528
0003a0 0b ff 0a 3d ed 70 92 bd db a6 cd 3c 86 0a 69 bd
       0.033934634 -0.07150445 0.025103977 -0.0568948
0003b0 72 b4 75 bd aa cf a3 bd 9f 3d c6 bc 0e 0b b9 be
       -0.05998654 -0.07998593 -0.024199305 -0.36141247
0003c0 0e 62 e2 bd 4a ac 46 3d 4d 25 81 3b 59 b6 18 be
       -0.11053859 0.04850415 0.003941214 -0.1491331
0003d0 c6 11 1a 3d a4 4c e5 be bb 44 b9 3d 4c 8c 06 3e
       0.037614606 -0.44785035 0.090463124 0.13139457
0003e0 5b 99 97 bd 16 d4 ae bd 46 02 19 3d 19 48 07 be
       -0.07402297 -0.08536546 0.037355684 -0.13211097
0003f0 d2 6c b8 bd 7e f7 4b bd c9 6b 10 bd f7 17 d5 bc
       -0.09005131 -0.049796574 -0.035259042 -0.026012404

rnn.bias_ih_l0 f4 [64]
000000 a9 d3 45 bd a4 57 11 bd 04 ed c0 3c 80 45 c9 bd
       -0.048297558 -0.03548397 0.023550518 -0.09827709
000010 b8 dd aa bd 4a aa 8c 3d 2b 85 f1 bb 24 4a 52 bd
       -0.08343071 0.068684176 -0.007370611 -0.051340237
000020 0d cc 23 be 06 c8 49 bc 49 21 80 bd 68 3f cc 3d
       -0.15995808 -0.012315756 -0.06256349 0.09973031
000030 01 21 03 bd e0 bf 56 bd 20 1f 86 bd b0 3a 6f bd
       -0.032013897 -0.05242908 -0.065489054 -0.058405578
000040 a5 55 e2 3b 0c f6 1d 3c 2e dc d7 bd ed f8 83 bb
       0.0069071823 0.009641182 -0.10540043 -0.004027477
000050 5e fd 95 3c 18 07 28 bd e1 ce 52 bc 76 12 e5 bb
       0.018309291 -0.04102239 -0.012866707 -0.006990726
000060 6f f1 f7 3c 37 2e 13 bd a5 1b bd 3d 1c f1 b4 bd
       0.030266492 -0.035932746 0.092337884 -0.088350505
000070 dc 99 9d 3c ef 3c 14 bc 89 c8 f3 bb 20 bb b6 bd
       0.019238405 -0.009047731 -0.007439677 -0.0892241
000080 af 31 b6 bc df 06 b1 3c fd 56 ef 3a f6 8b 85 39
       -0.022240488 0.021609722 0.0018260177 0.00025472016
000090 eb 5b e7 bc 23 6e a0 bc 6f 02 8b bd dd 98 87 bc
       -0.028242072 -0.019583767 -0.067875735 -0.016552383
0000a0 0b c2 66 3c 57 1f a0 3c 39 c4 7d 3d 6e a6 d5 3b
       0.014084349 0.019546194 0.06195471 0.006520084
0000b0 12 fb 60 bd 8f 90 8e bb 85 70 b5 bd 44 58 7f bd
       -0.05492694 -0.004350729 -0.08859352 -0.062340036
0000c0 21 14 36 bd bc a7 b0 3d 7d 49 90 3b 18 91 70 3c
       -0.04445279 0.08625743 0.0044032917 0.014683031
0000d0 b3 be 86 bd 9d 83 b9 bd b0 0c d2 bc 43 2b 6b bd
       -0.06579342 -0.09058306 -0.025640815 -0.057414304
0000e0 bd 96 7d bd 8d 8c 1f 3d c9 0e ba bd 88 a7 5e bd
       -0.061911333 0.0389524 -0.09084851 -0.05435899
0000f0 d4 f4 db bc 87 14 a6 bc ab b9 70 bd fa e0 d3 ba
       -0.026850142 -0.02027346 -0.058770817 -0.0016165071

rnn.bias_hh_l0 f4 [64]
000000 6b 42 d8 3c 53 fc 28 3c 74 8d 02 3e ea d0 1a bd
       0.026398858 0.010314065 0.12749273 -0.037796892
000010 64 59 54 3d dc ce da 3d da 66 5d 3d 30 9f 38 3d
       0.051843062 0.106839865 0.054053165 0.045073688
000020 33 21 a0 3c b1 ae 52 3d 03 11 e5 bd 27 3b a9 bd
       0.01954708 0.05143613 -0.11184885 -0.082632355
000030 91 67 ae bd 33 a8 92 3d 4f 7c 80 3d d0 b1 ab 3d
       -0.085158475 0.07160988 0.0627371 0.083835244
000040 a0 50 04 bd d0 9f 0b bd 62 b3 04 3e 3d 1f 46 3d
       -0.032303452 -0.034087956 0.12959054 0.048369635
000050 8e 9a 0c bd 1e 0e f5 3c 90 1d 83 3c b6 0b 91 3c
       -0.034327082 0.029913958 0.016005307 0.01770578
000060 9c 44 96 bc 93 54 fd 3c 62 d0 8b bd ca f6 95 3d
       -0.018343262 0.030924117 -0.06826855 0.07322462
000070 a1 95 fe 3b 18 18 43 bd 0a e8 df ba f8 17 7d 3d
       0.007769302 -0.0476304 -0.0017082703 0.061790437
000080 e4 a4 0b 3d 9b 8c 2d 3c 5f 49 dd bc 34 54 89 bc
       0.0340928 0.010592605 -0.027012525 -0.016763784
000090 30 b8 4c 3d e6 00 7f 3d 24 75 bf 3d b0 ff 29 bd
       0.049980342 0.062256716 0.09348515 -0.04150361
0000a0 bc 20 5b bd b5 a4 9f 3c 75 b2 b9 bd d9 78 cf bc
       -0.053498015 0.019487718 -0.09067241 -0.02532618
0000b0 f9 f5 8c 3d 3b 15 ff bc db 16 ff 3d 36 d6 fe bd
       0.06882853 -0.031138053 0.12455531 -0.12443201
0000c0 3d 8b f4 3c d0 9b 77 bd 26 41 58 bc e6 40 5e bc
       0.02985155 -0.06045133 -0.013199126 -0.013565278
0000d0 87 db e3 3d 64 89 b4 bd ad 7d 26 3d f1 90 d7 bc
       0.11125856 -0.08815268 0.040647198 -0.02631423
0000e0 cc 7e a9 3d 6f e9 51 39 62 53 e5 3d 95 9c d0 3d
       0.08276138 0.00020018754 0.11197545 0.10186116
0000f0 f5 03 39 3d 0e 33 06 3d 86 3a 7b 3d b4 23 85 ba
       0.04516979 0.032763533 0.06133511 -0.0010157735

fc.weight f4 [1, 64]
000000 2e 16 52 bb 3a 11 1b 3b e7 cf ab bc 18 5a a6 3c
       -0.0032056677 0.002366139 -0.020973159 0.020306632
000010 b6 51 02 bc 28 5d b4 bb f1 e1 8f 3c 1e 1f 65 bb
       -0.007954052 -0.005504269 0.017563792 -0.0034961174
000020 56 20 2f bc 8d 60 93 bc 36 66 c6 3c 38 40 95 3a
       -0.010688862 -0.017990375 0.02421866 0.0011386937
000030 b1 ce 77 3c ca 9a d8 bb 2d d6 06 bb 72 66 10 3b
       0.015124963 -0.006610249 -0.0020574436 0.0022033718
000040 85 3b ed 3b d3 ea b8 3c 26 d1 8a bc 3a 86 f0 bb
       0.0072397613 0.02257291 -0.016945433 -0.00734022
000050 fa 8b 2e 3c 12 e6 c2 bb 37 c1 c3 3b 32 ce 5a bb
       0.01065349 -0.0059478367 0.0059739607 -0.0033387062
000060 78 33 9f b9 60 6f c5 bb 1e d9 95 3c 54 85 15 3c
       -0.0003036519 -0.00602524 0.018292006 0.009126026
000070 32 b0 a3 bb aa d8 36 3c 92 01 c3 ba 9e 42 ab 3c
       -0.0049953694 0.011160055 -0.0014877787 0.020905789
000080 b3 dc 8d 3b 86 48 83 bc 9f 0f 26 3c 75 67 21 bc
       0.004329288 -0.016025793 0.01013556 -0.009851326
000090 66 fd 40 3b f0 6f 06 bc 4e 7d d1 bb 7f 11 23 bc
       0.0029447912 -0.008205399 -0.0063931113 -0.009952902
0000a0 1f ea 51 bb 3e 5a 18 bc 8b e6 64 b9 4a 4a 1b bb
       -0.0032030416 -0.009298859 -0.00021829658 -0.0023695403
0000b0 f1 2f de 3b 9b 8e 3e 3b cc 90 56 bc 2c e6 df be
       0.0067806174 0.0029076699 -0.013096046 -0.43730295
0000c0 c5 2e 81 b8 1c 0c 15 3b d4 47 54 bb 9a f2 ad bb
       -6.159911e-05 0.0022742813 -0.0032391446 -0.0053084614
0000d0 a3 60 a0 bc d8 8a e1 be 03 5a 4f 3c f4 47 79 bc
       -0.01957733 -0.44051242 0.012655738 -0.015214909
0000e0 7e 5c 83 3b 8d 74 cc bb 02 a5 3f bb 06 aa 3b bc
       0.0040088287 -0.00623948 -0.002924264 -0.011454111
0000f0 47 4b 82 3b bf cd 80 bc 18 0b d2 bb c5 3d 73 3b
       0.003976259 -0.015723107 -0.006410014 0.0037115675
